…
ory: 100%|██████████| 2000/2000 [00:13<00:00, 146.87image/s]
Read test dataset into memory:   0%|          | 0/5 [00:00<?, ?image/s]Read test dataset into memory:  20%|██        | 1/5 [00:00<00:01,  2.93image/s]Read test dataset into memory:  40%|████      | 2/5 [00:00<00:00,  4.72image/s]Read test dataset into memory:  80%|████████  | 4/5 [00:00<00:00,  8.35image/s]Read test dataset into memory: 100%|██████████| 5/5 [00:00<00:00,  7.55image/s]
Load train dataset and valid dataset successfully.
Build VDSR model successfully.

ORIGINAL UN-PRUNED MODEL: 
 VDSR(
  (conv1): Sequential(
    (0): Conv2d(1, 64, kernel_size=(3, 3), stride=(1, 1), padding=(1, 1), bias=False)
    (1): ReLU(inplace=True)
  )
  (trunk): Sequential(
    (0): ConvReLU(
      (conv): Conv2d(64, 64, kernel_size=(3, 3), stride=(1, 1), padding=(1, 1), bias=False)
      (relu): ReLU(inplace=True)
    )
    (1): ConvReLU(
      (conv): Conv2d(64, 64, kernel_size=(3, 3), stride=(1, 1), padding=(1, 1), bias=False)
      (relu): ReLU(inplace=True)
    )
    (2): ConvReLU(
      (conv): Conv2d(64, 64, kernel_size=(3, 3), stride=(1, 1), padding=(1, 1), bias=False)
      (relu): ReLU(inplace=True)
    )
    (3): ConvReLU(
      (conv): Conv2d(64, 64, kernel_size=(3, 3), stride=(1, 1), padding=(1, 1), bias=False)
      (relu): ReLU(inplace=True)
    )
    (4): ConvReLU(
      (conv): Conv2d(64, 64, kernel_size=(3, 3), stride=(1, 1), padding=(1, 1), bias=False)
      (relu): ReLU(inplace=True)
    )
    (5): ConvReLU(
      (conv): Conv2d(64, 64, kernel_size=(3, 3), stride=(1, 1), padding=(1, 1), bias=False)
      (relu): ReLU(inplace=True)
    )
    (6): ConvReLU(
      (conv): Conv2d(64, 64, kernel_size=(3, 3), stride=(1, 1), padding=(1, 1), bias=False)
      (relu): ReLU(inplace=True)
    )
    (7): ConvReLU(
      (conv): Conv2d(64, 64, kernel_size=(3, 3), stride=(1, 1), padding=(1, 1), bias=False)
      (relu): ReLU(inplace=True)
    )
    (8): ConvReLU(
      (conv): Conv2d(64, 64, kernel_size=(3, 3), stride=(1, 1), padding=(1, 1), bias=False)
      (relu): ReLU(inplace=True)
    )
    (9): ConvReLU(
      (conv): Conv2d(64, 64, kernel_size=(3, 3), stride=(1, 1), padding=(1, 1), bias=False)
      (relu): ReLU(inplace=True)
    )
    (10): ConvReLU(
      (conv): Conv2d(64, 64, kernel_size=(3, 3), stride=(1, 1), padding=(1, 1), bias=False)
      (relu): ReLU(inplace=True)
    )
    (11): ConvReLU(
      (conv): Conv2d(64, 64, kernel_size=(3, 3), stride=(1, 1), padding=(1, 1), bias=False)
      (relu): ReLU(inplace=True)
    )
    (12): ConvReLU(
      (conv): Conv2d(64, 64, kernel_size=(3, 3), stride=(1, 1), padding=(1, 1), bias=False)
      (relu): ReLU(inplace=True)
    )
    (13): ConvReLU(
      (conv): Conv2d(64, 64, kernel_size=(3, 3), stride=(1, 1), padding=(1, 1), bias=False)
      (relu): ReLU(inplace=True)
    )
    (14): ConvReLU(
      (conv): Conv2d(64, 64, kernel_size=(3, 3), stride=(1, 1), padding=(1, 1), bias=False)
      (relu): ReLU(inplace=True)
    )
    (15): ConvReLU(
      (conv): Conv2d(64, 64, kernel_size=(3, 3), stride=(1, 1), padding=(1, 1), bias=False)
      (relu): ReLU(inplace=True)
    )
    (16): ConvReLU(
      (conv): Conv2d(64, 64, kernel_size=(3, 3), stride=(1, 1), padding=(1, 1), bias=False)
      (relu): ReLU(inplace=True)
    )
    (17): ConvReLU(
      (conv): Conv2d(64, 64, kernel_size=(3, 3), stride=(1, 1), padding=(1, 1), bias=False)
      (relu): ReLU(inplace=True)
    )
  )
  (conv2): Conv2d(64, 1, kernel_size=(3, 3), stride=(1, 1), padding=(1, 1), bias=False)
) 


Defined all loss functions successfully.
Defined optimizer functions successfully.
Defined all optimizer scheduler successfully.
Checking and reading the pre-trained model.
CHKPT:  dict_keys(['epoch', 'best_psnr', 'state_dict', 'optimizer', 'scheduler'])
Loaded pretrained model weights.
Test: [0/5]	Time  3.141 ( 3.141)	PSNR 33.42 (33.42)
…
[2022-12-11 22:40:45] [32mreplace module (name: trunk.15.relu, op_type: ReLU)[0m
[2022-12-11 22:40:45] [32mreplace module (name: trunk.16.conv, op_type: Conv2d)[0m
[2022-12-11 22:40:45] [32mreplace module (name: trunk.16.relu, op_type: ReLU)[0m
[2022-12-11 22:40:45] [32mreplace module (name: trunk.17.conv, op_type: Conv2d)[0m
[2022-12-11 22:40:45] [32mreplace module (name: trunk.17.relu, op_type: ReLU)[0m
[2022-12-11 22:40:45] [32mreplace module (name: conv2, op_type: Conv2d)[0m
[2022-12-11 22:40:45] [32mspeedup done[0m

PRUNED MODEL WITH LevelPruner: 

 VDSR(
  (conv1): Sequential(
    (0): Conv2d(1, 64, kernel_size=(3, 3), stride=(1, 1), padding=(1, 1), bias=False)
    (1): ReLU(inplace=True)
  )
  (trunk): Sequential(
    (0): ConvReLU(
      (conv): Conv2d(64, 64, kernel_size=(3, 3), stride=(1, 1), padding=(1, 1), bias=False)
      (relu): ReLU(inplace=True)
    )
    (1): ConvReLU(
      (conv): Conv2d(64, 55, kernel_size=(3, 3), stride=(1, 1), padding=(1, 1), bias=False)
      (relu): ReLU(inplace=True)
    )
    (2): ConvReLU(
      (conv): Conv2d(55, 58, kernel_size=(3, 3), stride=(1, 1), padding=(1, 1), bias=False)
      (relu): ReLU(inplace=True)
    )
    (3): ConvReLU(
      (conv): Conv2d(58, 60, kernel_size=(3, 3), stride=(1, 1), padding=(1, 1), bias=False)
      (relu): ReLU(inplace=True)
    )
    (4): ConvReLU(
      (conv): Conv2d(60, 60, kernel_size=(3, 3), stride=(1, 1), padding=(1, 1), bias=False)
      (relu): ReLU(inplace=True)
    )
    (5): ConvReLU(
      (conv): Conv2d(60, 62, kernel_size=(3, 3), stride=(1, 1), padding=(1, 1), bias=False)
      (relu): ReLU(inplace=True)
    )
    (6): ConvReLU(
      (conv): Conv2d(62, 64, kernel_size=(3, 3), stride=(1, 1), padding=(1, 1), bias=False)
      (relu): ReLU(inplace=True)
    )
    (7): ConvReLU(
      (conv): Conv2d(64, 64, kernel_size=(3, 3), stride=(1, 1), padding=(1, 1), bias=False)
      (relu): ReLU(inplace=True)
    )
    (8): ConvReLU(
      (conv): Conv2d(64, 64, kernel_size=(3, 3), stride=(1, 1), padding=(1, 1), bias=False)
      (relu): ReLU(inplace=True)
    )
    (9): ConvReLU(
      (conv): Conv2d(64, 64, kernel_size=(3, 3), stride=(1, 1), padding=(1, 1), bias=False)
      (relu): ReLU(inplace=True)
    )
    (10): ConvReLU(
      (conv): Conv2d(64, 64, kernel_size=(3, 3), stride=(1, 1), padding=(1, 1), bias=False)
      (relu): ReLU(inplace=True)
    )
    (11): ConvReLU(
      (conv): Conv2d(64, 64, kernel_size=(3, 3), stride=(1, 1), padding=(1, 1), bias=False)
      (relu): ReLU(inplace=True)
    )
    (12): ConvReLU(
      (conv): Conv2d(64, 64, kernel_size=(3, 3), stride=(1, 1), padding=(1, 1), bias=False)
      (relu): ReLU(inplace=True)
    )
    (13): ConvReLU(
      (conv): Conv2d(64, 63, kernel_size=(3, 3), stride=(1, 1), padding=(1, 1), bias=False)
      (relu): ReLU(inplace=True)
    )
    (14): ConvReLU(
      (conv): Conv2d(63, 62, kernel_size=(3, 3), stride=(1, 1), padding=(1, 1), bias=False)
      (relu): ReLU(inplace=True)
    )
    (15): ConvReLU(
      (conv): Conv2d(62, 64, kernel_size=(3, 3), stride=(1, 1), padding=(1, 1), bias=False)
      (relu): ReLU(inplace=True)
    )
    (16): ConvReLU(
      (conv): Conv2d(64, 64, kernel_size=(3, 3), stride=(1, 1), padding=(1, 1), bias=False)
      (relu): ReLU(inplace=True)
    )
    (17): ConvReLU(
      (conv): Conv2d(64, 62, kernel_size=(3, 3), stride=(1, 1), padding=(1, 1), bias=False)
      (relu): ReLU(inplace=True)
    )
  )
  (conv2): Conv2d(62, 1, kernel_size=(3, 3), stride=(1, 1), padding=(1, 1), bias=False)
) 


Epoch: [1][ 0/19]	Time  6.847 ( 6.847)	Data  0.201 ( 0.201)	Loss 5974.474121 (5974.474121)	PSNR 24.61 (24.61)
Valid: [0/2]	Time  0.132 ( 0.132)	PSNR 27.64 (27.64)
 *  PSNR 27.56
Test: [0/5]	Time  0.729 ( 0.729)	PSNR 31.30 (31.30)
 *  PSNR 28.70


Epoch: [2][ 0/19]	Time  0.332 ( 0.332)	Data  0.099 ( 0.099)	Loss 6060.775391 (6060.775391)	PSNR 24.55 (24.55)
…
