…
ory: 100%|██████████| 2000/2000 [00:07<00:00, 267.96image/s]
Read test dataset into memory:   0%|          | 0/5 [00:00<?, ?image/s]Read test dataset into memory:  20%|██        | 1/5 [00:00<00:00,  5.30image/s]Read test dataset into memory:  60%|██████    | 3/5 [00:00<00:00,  8.83image/s]Read test dataset into memory: 100%|██████████| 5/5 [00:00<00:00, 11.25image/s]Read test dataset into memory: 100%|██████████| 5/5 [00:00<00:00, 10.10image/s]
Load train dataset and valid dataset successfully.
Build VDSR model successfully.

ORIGINAL UN-PRUNED MODEL: 
 VDSR(
  (conv1): Sequential(
    (0): Conv2d(1, 64, kernel_size=(3, 3), stride=(1, 1), padding=(1, 1), bias=False)
    (1): ReLU(inplace=True)
  )
  (trunk): Sequential(
    (0): ConvReLU(
      (conv): Conv2d(64, 64, kernel_size=(3, 3), stride=(1, 1), padding=(1, 1), bias=False)
      (relu): ReLU(inplace=True)
    )
    (1): ConvReLU(
      (conv): Conv2d(64, 64, kernel_size=(3, 3), stride=(1, 1), padding=(1, 1), bias=False)
      (relu): ReLU(inplace=True)
    )
    (2): ConvReLU(
      (conv): Conv2d(64, 64, kernel_size=(3, 3), stride=(1, 1), padding=(1, 1), bias=False)
      (relu): ReLU(inplace=True)
    )
    (3): ConvReLU(
      (conv): Conv2d(64, 64, kernel_size=(3, 3), stride=(1, 1), padding=(1, 1), bias=False)
      (relu): ReLU(inplace=True)
    )
    (4): ConvReLU(
      (conv): Conv2d(64, 64, kernel_size=(3, 3), stride=(1, 1), padding=(1, 1), bias=False)
      (relu): ReLU(inplace=True)
    )
    (5): ConvReLU(
      (conv): Conv2d(64, 64, kernel_size=(3, 3), stride=(1, 1), padding=(1, 1), bias=False)
      (relu): ReLU(inplace=True)
    )
    (6): ConvReLU(
      (conv): Conv2d(64, 64, kernel_size=(3, 3), stride=(1, 1), padding=(1, 1), bias=False)
      (relu): ReLU(inplace=True)
    )
    (7): ConvReLU(
      (conv): Conv2d(64, 64, kernel_size=(3, 3), stride=(1, 1), padding=(1, 1), bias=False)
      (relu): ReLU(inplace=True)
    )
    (8): ConvReLU(
      (conv): Conv2d(64, 64, kernel_size=(3, 3), stride=(1, 1), padding=(1, 1), bias=False)
      (relu): ReLU(inplace=True)
    )
    (9): ConvReLU(
      (conv): Conv2d(64, 64, kernel_size=(3, 3), stride=(1, 1), padding=(1, 1), bias=False)
      (relu): ReLU(inplace=True)
    )
    (10): ConvReLU(
      (conv): Conv2d(64, 64, kernel_size=(3, 3), stride=(1, 1), padding=(1, 1), bias=False)
      (relu): ReLU(inplace=True)
    )
    (11): ConvReLU(
      (conv): Conv2d(64, 64, kernel_size=(3, 3), stride=(1, 1), padding=(1, 1), bias=False)
      (relu): ReLU(inplace=True)
    )
    (12): ConvReLU(
      (conv): Conv2d(64, 64, kernel_size=(3, 3), stride=(1, 1), padding=(1, 1), bias=False)
      (relu): ReLU(inplace=True)
    )
    (13): ConvReLU(
      (conv): Conv2d(64, 64, kernel_size=(3, 3), stride=(1, 1), padding=(1, 1), bias=False)
      (relu): ReLU(inplace=True)
    )
    (14): ConvReLU(
      (conv): Conv2d(64, 64, kernel_size=(3, 3), stride=(1, 1), padding=(1, 1), bias=False)
      (relu): ReLU(inplace=True)
    )
    (15): ConvReLU(
      (conv): Conv2d(64, 64, kernel_size=(3, 3), stride=(1, 1), padding=(1, 1), bias=False)
      (relu): ReLU(inplace=True)
    )
    (16): ConvReLU(
      (conv): Conv2d(64, 64, kernel_size=(3, 3), stride=(1, 1), padding=(1, 1), bias=False)
      (relu): ReLU(inplace=True)
    )
    (17): ConvReLU(
      (conv): Conv2d(64, 64, kernel_size=(3, 3), stride=(1, 1), padding=(1, 1), bias=False)
      (relu): ReLU(inplace=True)
    )
  )
  (conv2): Conv2d(64, 1, kernel_size=(3, 3), stride=(1, 1), padding=(1, 1), bias=False)
) 


Defined all loss functions successfully.
Defined optimizer functions successfully.
Defined all optimizer scheduler successfully.
Checking and reading the pre-trained model.
CHKPT:  dict_keys(['epoch', 'best_psnr', 'state_dict', 'optimizer', 'scheduler'])
Loaded pretrained model weights.
Test: [0/5]	Time  3.140 ( 3.140)	PSNR 33.35 (33.35)
…
[2022-12-10 06:01:53] [32mreplace module (name: trunk.15.relu, op_type: ReLU)[0m
[2022-12-10 06:01:53] [32mreplace module (name: trunk.16.conv, op_type: Conv2d)[0m
[2022-12-10 06:01:53] [32mreplace module (name: trunk.16.relu, op_type: ReLU)[0m
[2022-12-10 06:01:53] [32mreplace module (name: trunk.17.conv, op_type: Conv2d)[0m
[2022-12-10 06:01:53] [32mreplace module (name: trunk.17.relu, op_type: ReLU)[0m
[2022-12-10 06:01:53] [32mreplace module (name: conv2, op_type: Conv2d)[0m
[2022-12-10 06:01:53] [32mspeedup done[0m

PRUNED MODEL WITH L1NormPruner: 

 VDSR(
  (conv1): Sequential(
    (0): Conv2d(1, 39, kernel_size=(3, 3), stride=(1, 1), padding=(1, 1), bias=False)
    (1): ReLU(inplace=True)
  )
  (trunk): Sequential(
    (0): ConvReLU(
      (conv): Conv2d(39, 39, kernel_size=(3, 3), stride=(1, 1), padding=(1, 1), bias=False)
      (relu): ReLU(inplace=True)
    )
    (1): ConvReLU(
      (conv): Conv2d(39, 39, kernel_size=(3, 3), stride=(1, 1), padding=(1, 1), bias=False)
      (relu): ReLU(inplace=True)
    )
    (2): ConvReLU(
      (conv): Conv2d(39, 39, kernel_size=(3, 3), stride=(1, 1), padding=(1, 1), bias=False)
      (relu): ReLU(inplace=True)
    )
    (3): ConvReLU(
      (conv): Conv2d(39, 39, kernel_size=(3, 3), stride=(1, 1), padding=(1, 1), bias=False)
      (relu): ReLU(inplace=True)
    )
    (4): ConvReLU(
      (conv): Conv2d(39, 39, kernel_size=(3, 3), stride=(1, 1), padding=(1, 1), bias=False)
      (relu): ReLU(inplace=True)
    )
    (5): ConvReLU(
      (conv): Conv2d(39, 39, kernel_size=(3, 3), stride=(1, 1), padding=(1, 1), bias=False)
      (relu): ReLU(inplace=True)
    )
    (6): ConvReLU(
      (conv): Conv2d(39, 39, kernel_size=(3, 3), stride=(1, 1), padding=(1, 1), bias=False)
      (relu): ReLU(inplace=True)
    )
    (7): ConvReLU(
      (conv): Conv2d(39, 39, kernel_size=(3, 3), stride=(1, 1), padding=(1, 1), bias=False)
      (relu): ReLU(inplace=True)
    )
    (8): ConvReLU(
      (conv): Conv2d(39, 39, kernel_size=(3, 3), stride=(1, 1), padding=(1, 1), bias=False)
      (relu): ReLU(inplace=True)
    )
    (9): ConvReLU(
      (conv): Conv2d(39, 39, kernel_size=(3, 3), stride=(1, 1), padding=(1, 1), bias=False)
      (relu): ReLU(inplace=True)
    )
    (10): ConvReLU(
      (conv): Conv2d(39, 39, kernel_size=(3, 3), stride=(1, 1), padding=(1, 1), bias=False)
      (relu): ReLU(inplace=True)
    )
    (11): ConvReLU(
      (conv): Conv2d(39, 39, kernel_size=(3, 3), stride=(1, 1), padding=(1, 1), bias=False)
      (relu): ReLU(inplace=True)
    )
    (12): ConvReLU(
      (conv): Conv2d(39, 39, kernel_size=(3, 3), stride=(1, 1), padding=(1, 1), bias=False)
      (relu): ReLU(inplace=True)
    )
    (13): ConvReLU(
      (conv): Conv2d(39, 39, kernel_size=(3, 3), stride=(1, 1), padding=(1, 1), bias=False)
      (relu): ReLU(inplace=True)
    )
    (14): ConvReLU(
      (conv): Conv2d(39, 39, kernel_size=(3, 3), stride=(1, 1), padding=(1, 1), bias=False)
      (relu): ReLU(inplace=True)
    )
    (15): ConvReLU(
      (conv): Conv2d(39, 39, kernel_size=(3, 3), stride=(1, 1), padding=(1, 1), bias=False)
      (relu): ReLU(inplace=True)
    )
    (16): ConvReLU(
      (conv): Conv2d(39, 39, kernel_size=(3, 3), stride=(1, 1), padding=(1, 1), bias=False)
      (relu): ReLU(inplace=True)
    )
    (17): ConvReLU(
      (conv): Conv2d(39, 39, kernel_size=(3, 3), stride=(1, 1), padding=(1, 1), bias=False)
      (relu): ReLU(inplace=True)
    )
  )
  (conv2): Conv2d(39, 1, kernel_size=(3, 3), stride=(1, 1), padding=(1, 1), bias=False)
) 


Epoch: [1][ 0/39]	Time  0.442 ( 0.442)	Data  0.051 ( 0.051)	Loss 3851.571533 (3851.571533)	PSNR 23.49 (23.49)
Valid: [0/4]	Time  0.061 ( 0.061)	PSNR 27.88 (27.88)
 *  PSNR 27.39
Test: [0/5]	Time  0.155 ( 0.155)	PSNR 31.76 (31.76)
 *  PSNR 28.39


Epoch: [2][ 0/39]	Time  0.151 ( 0.151)	Data  0.046 ( 0.046)	Loss 4171.091309 (4171.091309)	PSNR 23.15 (23.15)
…
