…
Read test dataset into memory:   0%|          | 0/5 [00:00<?, ?image/s]Read test dataset into memory:  20%|██        | 1/5 [00:00<00:00,  5.33image/s]Read test dataset into memory:  40%|████      | 2/5 [00:00<00:00,  6.88image/s]Read test dataset into memory:  60%|██████    | 3/5 [00:00<00:00,  8.02image/s]Read test dataset into memory: 100%|██████████| 5/5 [00:00<00:00, 10.46image/s]Read test dataset into memory: 100%|██████████| 5/5 [00:00<00:00,  9.09image/s]
Load train dataset and valid dataset successfully.
Build VDSR model successfully.

ORIGINAL UN-PRUNED MODEL: 
 VDSR(
  (conv1): Sequential(
    (0): Conv2d(1, 64, kernel_size=(3, 3), stride=(1, 1), padding=(1, 1), bias=False)
    (1): ReLU(inplace=True)
  )
  (trunk): Sequential(
    (0): ConvReLU(
      (conv): Conv2d(64, 64, kernel_size=(3, 3), stride=(1, 1), padding=(1, 1), bias=False)
      (relu): ReLU(inplace=True)
    )
    (1): ConvReLU(
      (conv): Conv2d(64, 64, kernel_size=(3, 3), stride=(1, 1), padding=(1, 1), bias=False)
      (relu): ReLU(inplace=True)
    )
    (2): ConvReLU(
      (conv): Conv2d(64, 64, kernel_size=(3, 3), stride=(1, 1), padding=(1, 1), bias=False)
      (relu): ReLU(inplace=True)
    )
    (3): ConvReLU(
      (conv): Conv2d(64, 64, kernel_size=(3, 3), stride=(1, 1), padding=(1, 1), bias=False)
      (relu): ReLU(inplace=True)
    )
    (4): ConvReLU(
      (conv): Conv2d(64, 64, kernel_size=(3, 3), stride=(1, 1), padding=(1, 1), bias=False)
      (relu): ReLU(inplace=True)
    )
    (5): ConvReLU(
      (conv): Conv2d(64, 64, kernel_size=(3, 3), stride=(1, 1), padding=(1, 1), bias=False)
      (relu): ReLU(inplace=True)
    )
    (6): ConvReLU(
      (conv): Conv2d(64, 64, kernel_size=(3, 3), stride=(1, 1), padding=(1, 1), bias=False)
      (relu): ReLU(inplace=True)
    )
    (7): ConvReLU(
      (conv): Conv2d(64, 64, kernel_size=(3, 3), stride=(1, 1), padding=(1, 1), bias=False)
      (relu): ReLU(inplace=True)
    )
    (8): ConvReLU(
      (conv): Conv2d(64, 64, kernel_size=(3, 3), stride=(1, 1), padding=(1, 1), bias=False)
      (relu): ReLU(inplace=True)
    )
    (9): ConvReLU(
      (conv): Conv2d(64, 64, kernel_size=(3, 3), stride=(1, 1), padding=(1, 1), bias=False)
      (relu): ReLU(inplace=True)
    )
    (10): ConvReLU(
      (conv): Conv2d(64, 64, kernel_size=(3, 3), stride=(1, 1), padding=(1, 1), bias=False)
      (relu): ReLU(inplace=True)
    )
    (11): ConvReLU(
      (conv): Conv2d(64, 64, kernel_size=(3, 3), stride=(1, 1), padding=(1, 1), bias=False)
      (relu): ReLU(inplace=True)
    )
    (12): ConvReLU(
      (conv): Conv2d(64, 64, kernel_size=(3, 3), stride=(1, 1), padding=(1, 1), bias=False)
      (relu): ReLU(inplace=True)
    )
    (13): ConvReLU(
      (conv): Conv2d(64, 64, kernel_size=(3, 3), stride=(1, 1), padding=(1, 1), bias=False)
      (relu): ReLU(inplace=True)
    )
    (14): ConvReLU(
      (conv): Conv2d(64, 64, kernel_size=(3, 3), stride=(1, 1), padding=(1, 1), bias=False)
      (relu): ReLU(inplace=True)
    )
    (15): ConvReLU(
      (conv): Conv2d(64, 64, kernel_size=(3, 3), stride=(1, 1), padding=(1, 1), bias=False)
      (relu): ReLU(inplace=True)
    )
    (16): ConvReLU(
      (conv): Conv2d(64, 64, kernel_size=(3, 3), stride=(1, 1), padding=(1, 1), bias=False)
      (relu): ReLU(inplace=True)
    )
    (17): ConvReLU(
      (conv): Conv2d(64, 64, kernel_size=(3, 3), stride=(1, 1), padding=(1, 1), bias=False)
      (relu): ReLU(inplace=True)
    )
  )
  (conv2): Conv2d(64, 1, kernel_size=(3, 3), stride=(1, 1), padding=(1, 1), bias=False)
) 


Defined all loss functions successfully.
Defined optimizer functions successfully.
Defined all optimizer scheduler successfully.
Checking and reading the pre-trained model.
CHKPT:  dict_keys(['epoch', 'best_psnr', 'state_dict', 'optimizer', 'scheduler'])
Loaded pretrained model weights.
Test: [0/5]	Time  2.675 ( 2.675)	PSNR 33.42 (33.42)
…
[2022-12-11 18:01:46] [32mreplace module (name: trunk.15.relu, op_type: ReLU)[0m
[2022-12-11 18:01:46] [32mreplace module (name: trunk.16.conv, op_type: Conv2d)[0m
[2022-12-11 18:01:46] [32mreplace module (name: trunk.16.relu, op_type: ReLU)[0m
[2022-12-11 18:01:46] [32mreplace module (name: trunk.17.conv, op_type: Conv2d)[0m
[2022-12-11 18:01:46] [32mreplace module (name: trunk.17.relu, op_type: ReLU)[0m
[2022-12-11 18:01:46] [32mreplace module (name: conv2, op_type: Conv2d)[0m
[2022-12-11 18:01:46] [32mspeedup done[0m

PRUNED MODEL WITH FPGMPruner: 

 VDSR(
  (conv1): Sequential(
    (0): Conv2d(1, 64, kernel_size=(3, 3), stride=(1, 1), padding=(1, 1), bias=False)
    (1): ReLU(inplace=True)
  )
  (trunk): Sequential(
    (0): ConvReLU(
      (conv): Conv2d(64, 39, kernel_size=(3, 3), stride=(1, 1), padding=(1, 1), bias=False)
      (relu): ReLU(inplace=True)
    )
    (1): ConvReLU(
      (conv): Conv2d(39, 39, kernel_size=(3, 3), stride=(1, 1), padding=(1, 1), bias=False)
      (relu): ReLU(inplace=True)
    )
    (2): ConvReLU(
      (conv): Conv2d(39, 39, kernel_size=(3, 3), stride=(1, 1), padding=(1, 1), bias=False)
      (relu): ReLU(inplace=True)
    )
    (3): ConvReLU(
      (conv): Conv2d(39, 39, kernel_size=(3, 3), stride=(1, 1), padding=(1, 1), bias=False)
      (relu): ReLU(inplace=True)
    )
    (4): ConvReLU(
      (conv): Conv2d(39, 39, kernel_size=(3, 3), stride=(1, 1), padding=(1, 1), bias=False)
      (relu): ReLU(inplace=True)
    )
    (5): ConvReLU(
      (conv): Conv2d(39, 39, kernel_size=(3, 3), stride=(1, 1), padding=(1, 1), bias=False)
      (relu): ReLU(inplace=True)
    )
    (6): ConvReLU(
      (conv): Conv2d(39, 39, kernel_size=(3, 3), stride=(1, 1), padding=(1, 1), bias=False)
      (relu): ReLU(inplace=True)
    )
    (7): ConvReLU(
      (conv): Conv2d(39, 39, kernel_size=(3, 3), stride=(1, 1), padding=(1, 1), bias=False)
      (relu): ReLU(inplace=True)
    )
    (8): ConvReLU(
      (conv): Conv2d(39, 39, kernel_size=(3, 3), stride=(1, 1), padding=(1, 1), bias=False)
      (relu): ReLU(inplace=True)
    )
    (9): ConvReLU(
      (conv): Conv2d(39, 39, kernel_size=(3, 3), stride=(1, 1), padding=(1, 1), bias=False)
      (relu): ReLU(inplace=True)
    )
    (10): ConvReLU(
      (conv): Conv2d(39, 39, kernel_size=(3, 3), stride=(1, 1), padding=(1, 1), bias=False)
      (relu): ReLU(inplace=True)
    )
    (11): ConvReLU(
      (conv): Conv2d(39, 39, kernel_size=(3, 3), stride=(1, 1), padding=(1, 1), bias=False)
      (relu): ReLU(inplace=True)
    )
    (12): ConvReLU(
      (conv): Conv2d(39, 39, kernel_size=(3, 3), stride=(1, 1), padding=(1, 1), bias=False)
      (relu): ReLU(inplace=True)
    )
    (13): ConvReLU(
      (conv): Conv2d(39, 39, kernel_size=(3, 3), stride=(1, 1), padding=(1, 1), bias=False)
      (relu): ReLU(inplace=True)
    )
    (14): ConvReLU(
      (conv): Conv2d(39, 39, kernel_size=(3, 3), stride=(1, 1), padding=(1, 1), bias=False)
      (relu): ReLU(inplace=True)
    )
    (15): ConvReLU(
      (conv): Conv2d(39, 39, kernel_size=(3, 3), stride=(1, 1), padding=(1, 1), bias=False)
      (relu): ReLU(inplace=True)
    )
    (16): ConvReLU(
      (conv): Conv2d(39, 39, kernel_size=(3, 3), stride=(1, 1), padding=(1, 1), bias=False)
      (relu): ReLU(inplace=True)
    )
    (17): ConvReLU(
      (conv): Conv2d(39, 39, kernel_size=(3, 3), stride=(1, 1), padding=(1, 1), bias=False)
      (relu): ReLU(inplace=True)
    )
  )
  (conv2): Conv2d(39, 1, kernel_size=(3, 3), stride=(1, 1), padding=(1, 1), bias=False)
) 


Epoch: [1][ 0/19]	Time  1.386 ( 1.386)	Data  0.090 ( 0.090)	Loss 8293.113281 (8293.113281)	PSNR 23.19 (23.19)
Valid: [0/2]	Time  0.119 ( 0.119)	PSNR 27.44 (27.44)
 *  PSNR 27.38
Test: [0/5]	Time  0.181 ( 0.181)	PSNR 31.85 (31.85)
 *  PSNR 28.44


Epoch: [2][ 0/19]	Time  0.301 ( 0.301)	Data  0.091 ( 0.091)	Loss 8534.941406 (8534.941406)	PSNR 23.06 (23.06)
…
